(128, 256)
Seq2Seq(
  (encoder): Encoder(
    (embedding): Embedding(59123, 128)
    (rnn): GRU(128, 256, bidirectional=True)
    (fc): Linear(in_features=512, out_features=256, bias=True)
    (dropout): Dropout(p=0.5)
  )
  (decoder): Decoder(
    (attention): Attention(
      (attn): Linear(in_features=768, out_features=256, bias=True)
    )
    (embedding): Embedding(32608, 128)
    (rnn): GRU(640, 256)
    (out): Linear(in_features=896, out_features=32608, bias=True)
    (dropout): Dropout(p=0.5)
  )
)
Baking batches...
Done.
Epoch: 01 | Time: 8m 7s
	Train Loss: 6.058 | Train PPL: 427.706
	 Val. Loss: 6.507 |  Val. PPL: 669.749
Validation loss has not improved in 0 epochs
Baking batches...
Done.
Epoch: 02 | Time: 8m 8s
	Train Loss: 5.287 | Train PPL: 197.808
	 Val. Loss: 5.962 |  Val. PPL: 388.529
Validation loss has not improved in 0 epochs
…
Validation loss has not improved in 0 epochs
Baking batches...
Done.
Epoch: 06 | Time: 8m 10s
	Train Loss: 3.601 | Train PPL:  36.619
	 Val. Loss: 5.680 |  Val. PPL: 292.951
Validation loss has not improved in 1 epochs
Baking batches...
Done.
Epoch: 07 | Time: 8m 9s
	Train Loss: 3.357 | Train PPL:  28.693
	 Val. Loss: 5.841 |  Val. PPL: 344.127
Validation loss has not improved in 2 epochs
Baking batches...
Done.
Epoch: 08 | Time: 8m 8s
	Train Loss: 3.158 | Train PPL:  23.525
	 Val. Loss: 5.918 |  Val. PPL: 371.602
Validation loss has not improved in 3 epochs
Early Stopping
(256, 256)
Seq2Seq(
  (encoder): Encoder(
    (embedding): Embedding(59123, 256)
    (rnn): GRU(256, 256, bidirectional=True)
    (fc): Linear(in_features=512, out_features=256, bias=True)
    (dropout): Dropout(p=0.5)
  )
  (decoder): Decoder(
    (attention): Attention(
      (attn): Linear(in_features=768, out_features=256, bias=True)
    )
    (embedding): Embedding(32608, 256)
    (rnn): GRU(768, 256)
    (out): Linear(in_features=1024, out_features=32608, bias=True)
    (dropout): Dropout(p=0.5)
  )
)
Baking batches...
Done.
Epoch: 01 | Time: 8m 43s
	Train Loss: 6.036 | Train PPL: 418.330
	 Val. Loss: 6.364 |  Val. PPL: 580.379
Validation loss has not improved in 0 epochs
Baking batches...
Done.
Epoch: 02 | Time: 8m 41s
	Train Loss: 5.260 | Train PPL: 192.423
	 Val. Loss: 5.914 |  Val. PPL: 370.055
Validation loss has not improved in 0 epochs
…
Validation loss has not improved in 0 epochs
Baking batches...
Done.
Epoch: 07 | Time: 8m 43s
	Train Loss: 3.057 | Train PPL:  21.262
	 Val. Loss: 5.643 |  Val. PPL: 282.188
Validation loss has not improved in 1 epochs
Baking batches...
Done.
Epoch: 08 | Time: 8m 43s
	Train Loss: 2.883 | Train PPL:  17.869
	 Val. Loss: 5.724 |  Val. PPL: 306.194
Validation loss has not improved in 2 epochs
Baking batches...
Done.
Epoch: 09 | Time: 8m 43s
	Train Loss: 2.740 | Train PPL:  15.483
	 Val. Loss: 5.625 |  Val. PPL: 277.219
Validation loss has not improved in 3 epochs
Early Stopping
(256, 512)
Seq2Seq(
  (encoder): Encoder(
    (embedding): Embedding(59123, 256)
    (rnn): GRU(256, 512, bidirectional=True)
    (fc): Linear(in_features=1024, out_features=512, bias=True)
    (dropout): Dropout(p=0.5)
  )
  (decoder): Decoder(
    (attention): Attention(
      (attn): Linear(in_features=1536, out_features=512, bias=True)
    )
    (embedding): Embedding(32608, 256)
    (rnn): GRU(1280, 512)
    (out): Linear(in_features=1792, out_features=32608, bias=True)
    (dropout): Dropout(p=0.5)
  )
)
Baking batches...
Done.
Epoch: 01 | Time: 12m 26s
	Train Loss: 5.837 | Train PPL: 342.896
	 Val. Loss: 6.207 |  Val. PPL: 496.026
Validation loss has not improved in 0 epochs
Baking batches...
Done.
Epoch: 02 | Time: 12m 26s
	Train Loss: 4.768 | Train PPL: 117.739
	 Val. Loss: 5.744 |  Val. PPL: 312.346
Validation loss has not improved in 0 epochs
…
